ci/tests/data/valid_nn_head/neural_network.pth (torch, 596366 bytes, 6 tensors)

weight f4 [256, 512]
000000 f8 7f 9d bc c2 1a d0 3c c0 04 9c 3c 9a cd 29 bd
       -0.01922606 0.025403384 0.019045234 -0.041455843
000010 49 26 fd bc 9a 6d 27 3d bb 1c f8 3b 13 40 ae 3c
       -0.030902045 0.04087601 0.0075717843 0.021270787
000020 c7 4e 04 bd 0c 08 15 bd b8 72 07 3d 6b 7a 5b ba
       -0.03230169 -0.036384627 0.03306839 -0.0008372429
000030 df 32 84 3c 14 4d 6b 3b 0b 9c 05 bd 62 0a c6 3b
       0.016137538 0.0035904096 -0.032619517 0.006043718
000040 fc 2e 6b bc 08 d6 32 3c c8 75 cf bc 48 d5 3d 3d
       -0.014354464 0.010915287 -0.025324717 0.04634598
000050 05 58 76 3c 03 7d c4 3c 37 5f ab 3a b0 e3 54 bb
       0.015035634 0.023985391 0.0013074641 -0.0032484345
000060 63 bf 15 3d cc 69 b2 3b 77 4e e4 bb d4 5a 17 3d
       0.036559474 0.005444741 -0.0069673616 0.036951855
000070 c5 91 a4 3c a4 e9 23 bd c2 f9 51 3c 26 b5 84 3c
       0.02008904 -0.04001774 0.012815895 0.01619966
000080 da 8d 03 3c 79 f4 07 3d c6 c0 6f 3c 44 52 aa bc
       0.0080294255 0.03319213 0.014633363 -0.02079118
000090 b4 2b 49 bd fa 40 16 3d a3 2e 88 3b 62 96 bb bc
       -0.049113944 0.03668306 0.00415595 -0.022898857
0000a0 6b cb 07 3c f1 66 21 3d 30 c3 82 bc bb 5e b5 3c
       0.008288245 0.039404813 -0.015962213 0.022139898
0000b0 53 6a e2 3b 43 70 0c bd b5 13 de bc e0 14 c5 3c
       0.0069096475 -0.03428675 -0.027109006 0.024057806
0000c0 c3 6f 3b bb 30 17 4c b8 b8 b4 07 bd bf 0f f0 3b
       -0.002860055 -4.8658985e-05 -0.03313133 0.007326096
0000d0 dc 3d 2e bc 8c af 92 3b a3 3d 79 3c 4e 3f ef bc
       -0.010634866 0.004476493 0.015212449 -0.02920499
0000e0 29 19 0c bd 0f 77 01 3d 35 fc 07 bc 12 c4 1f bd
       -0.034203682 0.031607684 -0.008299877 -0.039005347
0000f0 3c 82 a9 3c 36 9a e9 3c b4 6b 42 3c 0f 60 3f 3d
       0.020691983 0.028515916 0.011866499 0.046722468
000100 c0 ff 8e 3b fe 3c 03 bd a8 ed 1b bd a7 3c 0c 3d
       0.004363984 -0.03204059 -0.038068444 0.03423753
000110 3c f5 26 3d 26 a9 40 3c a1 76 2d 3d 9d 4f a9 ba
       0.040761217 0.011759078 0.04234946 -0.0012917403
000120 4d 22 8e 3b 33 a5 d9 3c ac 42 4c 3c 7a ef 38 3c
       0.004337585 0.026568031 0.012467068 0.011287564
000130 ee 93 2e 3d 17 e5 de bc 0e 88 81 bb 97 df d4 3c
       0.042621545 -0.027208848 -0.0039529866 0.025985522
000140 47 db ba bb 77 8b 59 3c 67 ab a1 3b e2 64 3f bd
       -0.0057024094 0.01327788 0.004933763 -0.04672707
000150 f6 78 eb bb 54 78 5c 3c 6d 13 f3 bc d2 23 2f bd
       -0.0071860505 0.013456423 -0.029672349 -0.04275877
000160 98 cf 21 bd 39 16 89 3c 94 68 93 3c 26 61 a6 3c
       -0.039504617 0.01673423 0.017994203 0.020309996
000170 62 44 1f 3c 0b ed 98 bc 2c 96 fc bc 27 52 14 3c
       0.009720894 -0.018667718 -0.030833326 0.00905279
000180 3d 03 cb bc 28 43 02 bd 37 d6 e5 bc 12 99 07 3d
       -0.024781818 -0.031802326 -0.028056247 0.033104964
000190 90 ad 25 3d 6b 87 3d bd f3 2d dc 3c d7 90 f2 3c
       0.040448725 -0.046271723 0.026877379 0.02961008
0001a0 53 d3 3e bd 09 7e eb bc 8c ca c9 bc dd ed a8 bc
       -0.046588253 -0.028746622 -0.024632715 -0.020621235
0001b0 ee 34 f6 3a 16 fd 04 3d 89 88 c8 bb 23 15 84 bc
       0.0018784085 0.032467924 -0.006119792 -0.01612336
0001c0 6a 91 b7 3c 16 62 8f 3c 10 02 11 bd ae b4 f2 bc
       0.022408206 0.017502826 -0.035402358 -0.02962717
0001d0 9b 0b 34 3d e1 95 00 bd dd 00 8e bc 16 f1 e5 bc
       0.04395638 -0.031392936 -0.017334396 -0.02806906
0001e0 03 43 0b 3d 92 51 46 bd cc 7f c9 bb c3 e8 92 bc
       0.033999454 -0.048417635 -0.006149268 -0.017933255
0001f0 12 7e 34 bd 94 43 df 3c fc 2d 2a 3d 2c 27 08 3d
       -0.044065543 0.027253903 0.04154776 0.033240482
000200 43 b1 d0 3c 79 f2 1d 3d a7 0a f6 3c bd 2c 62 3c
       0.02547515 0.038561318 0.030034376 0.013804612
000210 a2 28 ca bc 5d 1d 38 bd 33 b3 04 3d ce 5f 57 bc
       -0.024677578 -0.044949878 0.03239746 -0.0131454
000220 a1 da 91 bc a6 d5 8c bc 80 7b 14 bd 2b 70 c2 bc
       -0.017804446 -0.01719172 -0.03625059 -0.023735126
000230 ca 20 e9 3c d2 f2 1b bd ff c0 41 3b 8f 26 e5 3c
       0.028458018 -0.03807337 0.0029564498 0.027972488
000240 60 d9 23 bc c5 5b 23 3d c9 46 5e bb b1 da 13 bc
       -0.010000557 0.03988244 -0.0033916703 -0.009024308
000250 d3 46 2b bc d3 2b de bc ce 79 4f bd 26 32 ec bc
       -0.0104538975 -0.027120506 -0.05065327 -0.028832506
000260 c9 92 cd bc a8 ec 6e 3c 0a 65 a6 3b 70 ff 2c bc
       -0.025094407 0.01458279 0.0050779628 -0.010558948
000270 9f 65 22 bd c1 19 a5 3b a3 6e 24 3d dc 9b 50 3c
       -0.039647695 0.0050384705 0.040144574 0.012732472
000280 b7 e7 10 bd 55 41 12 bd 22 1a ab bc 90 1c 02 bd
       -0.03537723 -0.035706837 -0.020886485 -0.03176552
000290 49 cb 94 bc bd 55 2c bd dd b0 08 bd 49 4a c1 3c
       -0.01816334 -0.042073954 -0.033371795 0.023594992
0002a0 38 78 c8 bc ab 08 f2 bc bd 62 d0 bc f2 b0 26 3d
       -0.024471387 -0.029545149 -0.025437707 0.040696092
0002b0 07 31 50 bb 26 b7 07 bd 70 eb 4d bb 94 9c 40 bc
       -0.0031767504 -0.03313365 -0.003142085 -0.011756081
0002c0 9e 38 c0 3c 77 af ba 3b cd 2b 31 bd 40 10 5d 38
       0.023464497 0.0056971866 -0.043254662 5.270564e-05
0002d0 46 bc 18 3c a1 ed 40 3d ab 23 50 bb 3d ad 6f 3a
       0.009322232 0.04710162 -0.003175954 0.0009142941
0002e0 b8 db a7 3c 52 f7 af 3c 1a 40 ba bc fa ac 02 bd
       0.020490512 0.021480236 -0.022735644 -0.031903245
0002f0 5e 84 99 3c e8 07 af ba b2 80 37 3c 55 6f 2c 3d
       0.018739875 -0.0013353797 0.011200117 0.042098362
000300 c0 d1 d0 3c db bd 86 3b d4 df 18 bd 88 cb d6 bc
       0.025490642 0.004111988 -0.037322834 -0.026220098
000310 38 8e 2d bd 77 22 94 3c f2 0f ab 3a de b8 c7 3b
       -0.04237196 0.01808284 0.0013051017 0.006095036
000320 e6 32 67 3b 6d aa a8 3c d2 1c 80 3c ff 2b 13 bd
       0.003527814 0.020589078 0.015638743 -0.03593063
000330 98 62 bc 3c c3 a9 d1 3c 0e b0 da 3c 80 aa 9b 3c
       0.022996232 0.025593644 0.026695278 0.0190022
000340 a2 c7 6a bc 9a b2 13 ba ca d2 01 bd 55 65 e9 bc
       -0.014329823 -0.00056342187 -0.031695165 -0.028490702
000350 ec 56 9a bc bd f9 28 ba 7c 5a 7b ba c2 e0 ad bc
       -0.018840276 -0.00064459053 -0.00095883734 -0.021225337
000360 2c f4 de 3c b2 17 a5 3c 04 08 14 bd 58 4b 25 bd
       0.02721604 0.0201529 -0.036140457 -0.040355057
000370 c4 da 38 bc dc ca 7a 3c 4d 70 cd bc 62 79 35 bd
       -0.011282627 0.0153071545 -0.025077963 -0.044305213
000380 8a 8a c9 bc 68 52 9f 3b 39 e9 16 bc fc d6 cb bc
       -0.024602193 0.0048621185 -0.009210878 -0.024882786
000390 6d 30 1a 3d ba df 25 3c e7 16 94 3c 18 3d 14 3b
       0.03764384 0.010124141 0.018077327 0.0022619423
0003a0 60 60 14 3d 6a 28 f5 bb 50 b3 04 bd da aa ea 3c
       0.036224723 -0.0074816244 -0.03239757 0.028645921
0003b0 74 0f a9 bc 07 f1 2a bd 46 26 b8 3a 3d e9 bf 3c
       -0.020637251 -0.041733768 0.0014049492 0.023426646
0003c0 33 77 b4 bc fe 61 f1 3c ce 23 0a bd a1 7a 2c 3c
       -0.022029495 0.029465672 -0.033725552 0.010527284
0003d0 01 2c 19 bd 15 5e da bc cc 8d ef 3a 17 d4 b0 bc
       -0.03739548 -0.02665619 0.0018276512 -0.021585507
0003e0 20 4d d5 bc a3 83 31 bc a3 4a bd 3c 50 91 91 bc
       -0.026037753 -0.010834607 0.023106879 -0.017769486
0003f0 93 66 04 bd 0e ca d7 ba c3 b0 23 bd 78 52 aa 3b
       -0.032324385 -0.0016463415 -0.039963495 0.0051978193

bias f4 [256]
000000 53 b7 cf 3c 7b f4 72 bb c9 25 3e bc d8 c3 4e bc
       0.02535597 -0.0037071991 -0.011605688 -0.012619935
000010 b7 92 99 3c 36 5f db bb d9 a7 0b 3c 7d 3d c9 3b
       0.018746717 -0.0066946996 0.008523905 0.006141363
000020 ef 5c 10 3d e5 94 49 bc 47 97 ac bc 35 35 aa bc
       0.03524488 -0.012303566 -0.021068228 -0.020777324
000030 d0 19 28 ba 5d b4 01 3b a9 06 1d 3d e7 92 a2 bc
       -0.0006412538 0.0019791343 0.03833643 -0.01984544
000040 d3 1b c7 bc 0b fd 05 bb 2d 50 c0 bc 22 fa cb bc
       -0.02430526 -0.0020445015 -0.02347573 -0.024899546
000050 60 6f 5d 3c 22 d9 ea 3c b4 4e 9f 3c 21 15 a3 3b
       0.013515323 0.02866799 0.019446708 0.004976884
000060 29 ea 1d bd 94 92 c1 bc 31 de e6 3c 9d c9 b0 bc
       -0.03855339 -0.023629464 0.028182121 -0.021580512
000070 f0 ed bd bc d9 e2 9e bc f4 c5 2b bd ef e7 58 3c
       -0.023184747 -0.019395279 -0.04193683 0.013238891
000080 cb ba 77 bc ca c0 ef bc 54 e0 1b 3d c3 6a fe 3c
       -0.0151202185 -0.029266734 0.038055733 0.031056767
000090 fc c3 ee 3b bb e3 a7 3c 63 79 ad bb 09 c6 1b 3d
       0.0072865468 0.020494333 -0.0052940114 0.038030658
0000a0 91 d3 dd ba 36 a5 ef 3b 79 f2 35 3d 7b 89 c7 3c
       -0.0016924014 0.007313396 0.044420693 0.024357548
0000b0 0c ee b0 3c 54 ce a3 3c 2e 18 04 bd 8a 5a ca 3c
       0.021597885 0.019995846 -0.032249622 0.024701376
0000c0 18 1a 98 bc 6a 7d fb 3c ba 82 df ba 0b 6c 07 bd
       -0.01856713 0.03069945 -0.0017052509 -0.033062022
0000d0 06 11 2d 3d b5 45 10 bd 5b b0 0e bd 2a ba 5f 3c
       0.042252563 -0.035222728 -0.034836154 0.013655225
0000e0 83 13 a4 bc 02 55 cc 3c a4 34 cc 3c d3 52 82 3c
       -0.020028835 0.024942879 0.024927445 0.015908634
0000f0 ec 06 f3 3c 1c 6a 7b bb 39 3c 05 bd 87 08 05 3d
       0.029666387 -0.0038362807 -0.032528136 0.032478835
000100 0e 70 20 3d 9a 22 fd bc bb 68 77 bb 4c 76 1c bd
       0.039169364 -0.030900288 -0.0037751633 -0.038198754
000110 0a 25 15 3d 02 23 11 bd 24 ef 0e 3d 4b fa 20 3c
       0.036412276 -0.035433777 0.03489603 0.0098252995
000120 03 c5 a4 bc b4 17 06 3d f0 f0 1b 3d cf 52 cc bc
       -0.020113474 0.03273745 0.038071573 -0.02494183
000130 f6 fc 0a bd 98 59 bf bc b8 a9 b8 3c b1 51 fa 3c
       -0.03393265 -0.023358151 0.022541866 0.030556532
000140 a1 b8 26 bd bd 9d ac 3b 09 8d 17 3d d6 5c 43 bd
       -0.04070342 0.0052678273 0.036999736 -0.047695957
000150 e6 fa b1 bc bc 4e 5a bc b4 59 ad 3c a6 b8 29 3c
       -0.021726083 -0.013324436 0.021160938 0.010358965
000160 24 26 8b bc 5d 02 cf 3c 6b 20 0f 3d ef c5 42 3c
       -0.01698596 0.025269682 0.034943026 0.011888011
000170 79 9d 66 bc 02 42 74 bc 38 94 d6 3c be 1d 26 bd
       -0.01407563 -0.014908316 0.026193723 -0.040555708
000180 93 c8 04 3d 48 b6 2a bc 80 a0 db bc ad ec e7 3c
       0.032417845 -0.010419436 -0.02680993 0.028311098
000190 06 2b f1 3b cc 70 09 bd cd be 08 3d 97 7d 68 bb
       0.007359865 -0.033554837 0.033385087 -0.0035475248
0001a0 ff ab 02 bc 6a 5a b4 bc da 1a 8a 3b 95 f1 25 bd
       -0.007975577 -0.022015769 0.0042146267 -0.040513594
0001b0 8a 81 0f bd b3 a4 52 3a b1 03 3e bc 69 ff c8 3b
       -0.035035647 0.00080354064 -0.01159756 0.006133963
0001c0 92 84 80 bc e7 b4 25 3c 53 3e 48 bd de 6e 31 bc
       -0.015688214 0.010113931 -0.048887562 -0.010829655
0001d0 5e ff 15 3c c0 43 ab 3c 66 d3 b6 bc 6e 31 6f bc
       0.009155123 0.02090633 -0.0223176 -0.014599187
0001e0 49 8a 0f 3d df fd 8b bc 82 5e 8b bc 29 a6 b4 3b
       0.03504399 -0.017088829 -0.017012838 0.005512972
0001f0 08 d6 18 3d 43 e1 da b9 46 0d 08 3d 7d 3e b9 bc
       0.03731349 -0.00041748033 0.033215784 -0.022612805
000200 c1 cf 8c bb 10 4e cf 3c e8 6d 73 bc 35 db 09 bd
       -0.004297227 0.025305778 -0.014857747 -0.033656318
000210 21 3b 14 bd b0 63 66 bb 86 12 38 bc 19 6b 70 3c
       -0.036189202 -0.0035154633 -0.011234885 0.014673972
000220 aa 64 69 bc ca 81 18 3c 73 30 00 3d 4f 84 06 bd
       -0.014245192 0.009308288 0.031296205 -0.032841023
000230 e9 4f e0 bc ae 14 08 bd 22 6a 0d 3d 4c 12 ce bc
       -0.027381854 -0.033222847 0.034525044 -0.025155209
000240 02 27 f8 bc 21 41 0d bd 3a 65 20 bd b1 d0 16 bd
       -0.030292038 -0.03448594 -0.039159037 -0.036820117
000250 64 2c 4e bb c0 71 3c 3d 37 8f a1 bc 50 8b 2e bc
       -0.0031459564 0.046006918 -0.01972161 -0.010653332
000260 e2 8d 19 3d 98 90 6e 3c e1 b0 b3 3c 8e 12 74 bb
       0.037488826 0.014560841 0.021934928 -0.0037242505
000270 13 74 95 3b f9 fa 0f 3d cb 61 31 bd 7b 2a e9 3c
       0.0045609563 0.035151456 -0.043306153 0.02846264
000280 b0 a9 35 bd d7 7c fe 3c ec e1 67 bc f4 12 c4 3c
       -0.04435128 0.031065388 -0.014152985 0.023934819
000290 b9 b3 be 3c 3b d4 f2 bc d1 2d 19 3d 79 bb dd bc
       0.023279058 -0.029642215 0.03739721 -0.027066933
0002a0 17 ec c8 3b f3 a9 10 bd 61 85 df bb f5 bf fe bb
       0.0061316597 -0.035318326 -0.00682132 -0.007774348
0002b0 43 43 ec 3c d0 95 1d bd db 4d 12 3b fc d0 90 3a
       0.028840667 -0.03847295 0.0022324238 0.001104861
0002c0 c8 b4 64 3c 36 3b e7 3c 3a e4 15 bd 0d 58 2e 3b
       0.013959117 0.028226476 -0.036594607 0.0026602775
0002d0 5e 25 05 3d c3 0e bb 3c 95 ff f7 b9 1a 75 5d 3c
       0.03250634 0.022834187 -0.00047301935 0.013516689
0002e0 7e a4 fa 3c 68 e4 48 bc 3d 18 9c bc 0c 60 73 b9
       0.030596014 -0.012261488 -0.019054526 -0.00023210066
0002f0 54 42 03 3d af 89 09 3d f6 0e 29 3d 78 5b 13 3d
       0.032045677 0.03357857 0.041274033 0.035975903
000300 40 90 28 bd 2a 38 ba 3c 2e 6c c9 bc 3e 6a 08 3a
       -0.041153193 0.02273186 -0.024587717 0.00052038196
000310 cb 48 12 3d 69 0b 14 bd 46 f1 1a 3d 42 26 53 3c
       0.035713952 -0.036143694 0.037827753 0.012887539
000320 da e5 18 bd a9 58 1c 3d e0 a6 de 3c ad aa 89 3c
       -0.03732858 0.03817049 0.027179182 0.016805017
000330 a6 a7 d9 bc 9c 9a 56 bc c4 55 15 3d 4e 11 f5 3c
       -0.026569199 -0.013098385 0.036458746 0.029915478
000340 f5 a8 a6 bc 83 7e f9 3c 4b ab 36 bc 2d 8b 0d 3d
       -0.020344237 0.030455833 -0.011149238 0.034556556
000350 d6 64 92 3a bf 8d 36 3d e7 fc 0c bd 4c c9 9c 3a
       0.0011168967 0.044568773 -0.034420874 0.0011961847
000360 d7 ba 18 bd 7f a8 19 3d 58 3b f6 3c 42 8e 26 3d
       -0.03728756 0.037514206 0.030057594 0.04066301
000370 2a c2 47 3c 18 c7 8a bc f4 46 30 bd fb b6 b6 3c
       0.012192288 -0.016940638 -0.043036416 0.022304049
000380 85 ab 37 3d 9c ea 35 3d 1f bf b4 bb 53 1b 33 3d
       0.04484131 0.044413194 -0.0055159475 0.04372723
000390 5f e8 2a bd bc c0 bd 3c 9e b2 28 3d c0 96 37 3d
       -0.041725513 0.023163192 0.041185968 0.0448215
0003a0 2d ac 01 3c 29 d0 59 3c 93 f9 8d 39 f0 6a 12 3d
       0.007914585 0.013294258 0.00027079563 0.035746515
0003b0 da 32 de 3c 91 a4 0d bd 8d f2 19 bd 3c 5b 0d bd
       0.027123857 -0.03458077 -0.03758483 -0.034510836
0003c0 40 71 da bc e9 4e 0c bc f3 ba 89 bc bd 51 c9 3c
       -0.02666533 -0.0085637355 -0.016812777 0.024575109
0003d0 f1 b4 78 bc ff 2a 22 bd ce 73 91 3a c3 e8 c8 bc
       -0.015179859 -0.039591786 0.0011097135 -0.024525052
0003e0 35 9e fd 3c 11 ee a9 3c 1f 7b 03 3c 3f 52 64 bc
       0.030959228 0.020743402 0.00802496 -0.013935625
0003f0 2f 65 8d bc 61 06 3f bc 36 05 21 bb 7f a4 72 bc
       -0.017260162 -0.011659236 -0.0024569756 -0.014809727

weight f4 [64, 256]
000000 b2 fb 98 3c d9 87 1a 3c a1 41 0c 3d 1d 3b e7 3c
       0.018674705 0.009431803 0.034242276 0.02822643
000010 d5 bd 39 bc c2 cb 0b 3d f6 fb 6f bd 54 33 9f bc
       -0.011336763 0.034129865 -0.058589898 -0.019433655
000020 e3 e7 98 bc 10 f4 f5 bb c8 3b c2 bc ce 4b 77 bd
       -0.01866526 -0.007505901 -0.023710147 -0.060375027
000030 48 62 51 3d 48 6b 75 bd 12 97 02 3d 80 9c 71 bc
       0.05111912 -0.059916764 0.031882353 -0.014746785
000040 10 c3 c6 3c d0 8f 4c 3d be ad 14 3d 28 ad 88 bc
       0.024262935 0.049941838 0.036298506 -0.01668413
000050 1e 6d 14 bc 9d 17 98 3b b9 d2 76 bd 40 8f de ba
       -0.009059219 0.004641487 -0.060259555 -0.0016979948
000060 da ca 4f bd 8a 51 3d bd 09 71 b6 bc 80 b6 ff bb
       -0.050730564 -0.04622034 -0.022270696 -0.007803738
000070 d0 42 1a 3c 84 58 7a bd 80 8b 8c bc 41 6f 2b 3d
       0.009415343 -0.06111957 -0.017156363 0.041854147
000080 a4 00 5c bd 68 f0 9f bc 02 b9 4b bd 0e 2d 33 3d
       -0.05371155 -0.019523814 -0.049736984 0.04374414
000090 f2 a5 02 bd 7f 65 2a 3d c4 b4 46 bd 0a d8 81 bd
       -0.03189654 0.0416007 -0.048512235 -0.06340034
0000a0 38 fa 36 bc e9 0d 31 bd 9f e5 63 3d b0 da 60 bd
       -0.011168055 -0.043226156 0.055638906 -0.054896057
0000b0 32 59 7b bd fc a5 0a 3c 68 dd 3d bd 46 ce 3e 3d
       -0.06136436 0.008462425 -0.046353728 0.046583436
0000c0 54 40 36 3d 71 b6 f4 3c 14 2a 00 3d 44 74 bb 3c
       0.04449494 0.029872151 0.03129013 0.022882588
0000d0 a7 e0 12 bd 24 b2 bc 3c 60 1b b7 bc 20 0a 1d 3c
       -0.035858776 0.023034163 -0.02235192 0.0095849335
0000e0 b2 16 32 bd 0c 45 27 bd 04 b9 5a bd 6d be 2f bd
       -0.043478675 -0.040837333 -0.0533991 -0.042906214
0000f0 32 28 2a bd c8 a8 d4 3a d0 70 dd bb 28 ce be 3c
       -0.04154224 0.0016224617 -0.006757833 0.023291662
000100 4e 97 27 3d 4e 93 4b bd 24 9e 6f bd e0 fe df 3c
       0.04091578 -0.049701028 -0.058500424 0.027343214
000110 29 22 44 3c fe bb 56 bd 52 8d ba bc 1a 74 00 bd
       0.011971035 -0.052425377 -0.022772465 -0.031360723
000120 38 98 30 bc 57 40 6c bc 0e bb d8 bc 20 a5 c1 3b
       -0.010778479 -0.014419637 -0.026456382 0.005909577
000130 f8 95 b3 3c e8 45 13 bc f9 44 be bc b1 7c c9 3b
       0.021922097 -0.008988835 -0.023226248 0.0061488976
000140 78 d8 36 bc 69 75 27 bd c4 d8 12 bd 4c c3 bf bc
       -0.011160009 -0.040883455 -0.035851255 -0.023408554
000150 d8 dd cc 3c 92 92 04 bd 6b 4f ba bb 09 66 4a bd
       0.025008127 -0.032366343 -0.005685737 -0.049413715
000160 54 18 11 bd 2c 3d 23 3d ba f8 3d bd 44 f8 07 3d
       -0.03542359 0.03985326 -0.046379782 0.03319575
000170 74 3e 8e bc cc f5 67 3d 91 aa 0b 3d 52 9b 0c 3d
       -0.017363764 0.056630895 0.03409821 0.034327812
000180 16 4f 8e 3c 49 1e 1f bc a2 39 f3 3c 91 e1 3c 3d
       0.017371695 -0.00971181 0.029690567 0.046113554
000190 97 e4 3d bc 1a e6 4f bd f8 c4 b0 3c 6b 2f 74 bd
       -0.011590145 -0.05075655 0.021578297 -0.059615534
0001a0 88 84 c4 3c 90 ca e8 bc 80 f6 d3 3c 88 2c 32 3c
       0.023988977 -0.028416902 0.025874376 0.010874875
0001b0 fc 2b a2 3c c7 f3 60 3d c7 7a c2 bc 3c 69 b6 3c
       0.019796364 0.054919984 -0.023740185 0.022266977
0001c0 66 5c 1b 3d 08 87 ab 3c 94 4b 4b 3d 44 63 83 bb
       0.037929915 0.020938411 0.049632624 -0.004009636
0001d0 62 89 26 bd 53 86 5c bd 9c 31 71 3d e0 d1 98 bc
       -0.040658362 -0.05383904 0.0588852 -0.018654764
0001e0 d4 b8 7f 3c 40 82 df 3c 40 6a 5c bc ca 9d 57 3d
       0.015608031 0.027283788 -0.013453066 0.052640714
0001f0 06 9c 43 3d 78 26 23 3c 6a 14 29 bb c8 8e 4e 3c
       0.047756217 0.009957902 -0.0025799521 0.012607284
000200 00 1e 43 bb 4d c8 14 3b f2 df 60 bd ce 25 6e bd
       -0.002977252 0.0022702396 -0.05490107 -0.058141522
000210 00 a8 77 3d 34 b1 66 bd 6c 67 11 3d db e8 66 bd
       0.06046295 -0.056321338 0.03549902 -0.056374412
000220 d8 4a f4 bb 41 cf e3 bb 87 4f 2a bc 10 df 56 bc
       -0.007455211 -0.006952197 -0.010394937 -0.013114706
000230 88 34 68 3c 80 9b 6c bb ab 60 db 3c f0 72 53 bd
       0.014172681 -0.0036103427 0.026779493 -0.051623285
000240 88 01 26 bc 28 37 50 bc 40 9e 03 bd 5a 44 4e 3d
       -0.010132201 -0.012708463 -0.03213334 0.050358154
000250 c8 89 4e bd 0f 37 05 3d 90 af cb bc 40 f9 9d ba
       -0.050424367 0.03252321 -0.024863988 -0.0012052432
000260 88 a7 d6 bc 5f 22 38 bc f9 56 52 3d 59 31 26 bd
       -0.026202932 -0.011238663 0.051352475 -0.040574405
000270 4c b2 23 3c 65 44 24 bd f4 46 51 bd 9f a3 f5 3c
       0.00999124 -0.04010429 -0.051093057 0.029985247
000280 86 db 41 bd 49 96 75 bc e0 ca c1 bc c0 9f 6a 3c
       -0.047328494 -0.014989444 -0.023656309 0.014320314
000290 03 58 47 3c 10 23 bb 3c d1 03 1f 3c 20 0f 70 bd
       0.01216698 0.022843868 0.0097055 -0.058608174
0002a0 26 91 52 bd 2c 26 8c bc 80 1b 0f 3b 5f 5c da 3c
       -0.051407956 -0.017108046 0.002183646 0.026655374
0002b0 3d 34 22 bd 7c 91 98 bc a8 9f 8b bc 0e dc 35 bd
       -0.0396006 -0.01862406 -0.017043903 -0.044399314
0002c0 60 83 43 bd 37 4e d6 bc 88 42 1d bc 62 94 5e bd
       -0.04773271 -0.026160343 -0.009598382 -0.054340728
0002d0 21 9f 02 bd 18 8a a1 3c cc d5 fc bc d3 71 73 3d
       -0.03189004 0.019719169 -0.030863665 0.059434723
0002e0 2e 9f 05 bd cc 6e 92 bc 1e 3a 6f 3d a8 e7 2c 3d
       -0.03262251 -0.017875098 0.058405034 0.042213112
0002f0 4b 7d 3d bd 79 91 c9 bc 9e 6c f0 3b f8 db 19 bd
       -0.046262067 -0.0246055 0.007337167 -0.037563294
000300 a4 2e e3 bc 84 78 3d bc 76 e6 7c 3d 4a 56 51 3d
       -0.0277322 -0.011564378 0.061743222 0.051107682
000310 c2 86 73 bd 30 aa c7 3c 19 fd e8 3c 10 21 31 bd
       -0.059454687 0.024373144 0.028440999 -0.04324442
000320 48 11 39 3d 90 2f ce bc ec 7a 23 3d 55 a3 0f 3c
       0.045182496 -0.025169164 0.03991215 0.008766969
000330 ac 34 06 bd f2 44 58 bd e0 19 10 bd 10 6d 11 3b
       -0.032765076 -0.052800126 -0.035180926 0.002219025
000340 96 61 62 3d a1 1b 0e bc 09 89 2f bd 45 66 37 bd
       0.055268846 -0.008673579 -0.042855296 -0.044775266
000350 78 fe ef 3c 58 d1 58 bd 50 13 01 bd 9a df 68 3d
       0.029296145 -0.05293402 -0.03151256 0.056853868
000360 28 e6 d0 3c 8f 42 3c 3d 66 d5 0e bd 88 24 82 bc
       0.025500372 0.045961913 -0.03487148 -0.01588656
000370 1c b8 07 3d a9 94 83 3c a0 c2 a1 bc 2c 2e 6f bd
       0.033134565 0.016062098 -0.019746125 -0.058393642
000380 e3 a8 12 3d 77 5d eb 3c 84 89 8d 3c 42 a6 c1 3a
       0.035805594 0.028731091 0.017277487 0.001477428
000390 0c 56 10 bd e6 f8 0b 3d 93 b8 20 bc cc f7 b7 bc
       -0.03523831 0.034172915 -0.009809631 -0.022457026
0003a0 5c 30 f9 3c 8f dc bd bc 48 8c 2f 3d c5 d3 38 3d
       0.030418567 -0.02317646 0.042858392 0.045123834
0003b0 60 fe 5b 3d 7a c0 19 3d 98 24 54 bd 18 f6 10 bc
       0.053709388 0.037537076 -0.05179271 -0.008847736
0003c0 44 56 87 3c 5f ae 1d bd 10 05 6d 3c d2 86 e2 3c
       0.016520627 -0.03849637 0.014466539 0.027652178
0003d0 00 bb a6 39 28 89 3f 3d d6 55 d3 3c 00 f8 b8 3c
       0.00031801313 0.04676166 0.025797766 0.022579193
0003e0 7c af 4e bd 2c 1c 7c bd e5 5d 65 3d d0 30 f8 3c
       -0.050460324 -0.061550304 0.055997748 0.030296713
0003f0 40 49 f7 bc b6 8e 0d bd 70 1b a2 3c d3 82 50 3d
       -0.030186296 -0.034559928 0.019788474 0.050906014

bias f4 [64]
000000 fd 23 90 bc fd e2 c4 3c 79 56 10 bc 06 24 06 3d
       -0.017595286 0.024034018 -0.008809679 0.0327492
000010 b2 ef 62 3d 4f a0 13 bd 57 33 a2 3c 3c f9 76 bd
       0.055404373 -0.036041554 0.019799871 -0.060296282
000020 6f 4f b9 3b 98 5c 43 3b 6f f2 5c 3d 31 5c 45 3c
       0.005655221 0.002980983 0.05394214 0.012045906
000030 66 0a 2b bd 36 e8 5b bd e0 5b af bc f3 3b 5a 3d
       -0.041757964 -0.05368825 -0.021406114 0.05327983
000040 cf bd f9 3c 10 1e da 3c b8 c0 ea bc 26 30 27 3d
       0.030486016 0.026625663 -0.028656349 0.040817402
000050 a0 8b 23 3d 83 18 b5 3c 81 05 d2 3c e6 c7 5a bd
       0.03992808 0.022106415 0.02563739 -0.053413294
000060 da ba 3e 3d b9 09 86 3d 09 f3 35 3d 1c cf 18 3d
       0.046564914 0.06544823 0.04442123 0.03730689
000070 32 59 8f bc 35 65 b5 bb 5c 8c 01 bd cb 72 e6 3c
       -0.017498586 -0.0055357465 -0.031627998 0.02813091
000080 2d 43 db 3c d1 a3 7f 3d a8 06 da bc ef d7 12 3d
       0.02676543 0.062412087 -0.026614502 0.03585046
000090 96 cc e1 3c 11 21 5f 3d 5c a6 c0 bc 87 d9 01 bd
       0.027563374 0.054474894 -0.023516826 -0.03170159
0000a0 a8 05 05 bd bc e9 4e bd 0a 2e 56 3c 02 ad 86 3d
       -0.032476097 -0.050515875 0.0130725 0.06575967
0000b0 89 46 5e 3c 69 d4 5b 3d 58 54 4a 3b 0a 51 79 bd
       0.013566622 0.053669367 0.0030873027 -0.0608683
0000c0 52 87 43 3d c8 ef 03 3c 63 35 2b bc 0e 1f 37 bd
       0.047736473 0.008052774 -0.01044974 -0.04470735
0000d0 cb 55 39 3d e7 4a 29 3d 64 7c 3f 3d 7e 67 04 3d
       0.045247834 0.041331198 0.046749488 0.03232526
0000e0 80 21 34 bd 5c e7 1b bd 84 e8 b1 bc d0 cf 63 bd
       -0.04397726 -0.03806244 -0.021717317 -0.055618107
0000f0 b8 e3 0b 3c a8 c4 6f bd c4 20 21 3d 60 59 28 3d
       0.008538179 -0.058537155 0.03933789 0.04110086

weight f4 [3, 64]
000000 13 8c a7 3d 02 df a2 bd cb 89 a0 bd 6f 55 99 bd
       0.08181014 -0.079526916 -0.07838782 -0.07486998
000010 e7 64 96 3d 8e 5b 3b 3c 94 08 ff 3d 94 65 d3 3d
       0.07343464 0.011435403 0.12452808 0.10322109
000020 34 e1 5d 3d b9 49 aa bd 7f 90 bb bd d1 96 c7 bd
       0.05416985 -0.08314843 -0.0915842 -0.09745563
000030 8a db c4 3d 0e 69 b8 3d 36 af ba 3d eb 9b ec bb
       0.09612186 0.090044126 0.0911545 -0.0072207353
000040 75 45 95 3d 63 92 cb bd 80 a6 16 bc 55 99 e6 bd
       0.072886385 -0.099400304 -0.00919497 -0.112597145
000050 23 67 c8 3d 12 d5 0e b9 49 0f 7e 3d e2 c4 c8 bd
       0.09785297 -0.0001362155 0.062026296 -0.098031774
000060 f8 cf a8 3c ae d2 87 bd a0 31 00 3e 6f 14 13 3d
       0.02060698 -0.06631981 0.1251893 0.03590816
000070 0b e8 98 3d 72 63 e3 bd 60 88 a8 3d 88 e8 a5 3d
       0.07466134 -0.11102952 0.082291365 0.081009924
000080 3f a3 ee bc 92 8f 2b bc c6 aa e3 bd c4 e6 b3 bd
       -0.029130576 -0.010471242 -0.11116557 -0.087842494
000090 d6 3d c8 3d 57 d7 82 bc 38 68 cc 3d c2 d8 81 bd
       0.09777419 -0.015971823 0.09980816 -0.063401714
0000a0 dd 72 26 3d e4 09 24 bd 89 c4 f3 3d 10 06 b6 bb
       0.040636886 -0.040048495 0.119027205 -0.005554922
0000b0 55 9d b3 bd 60 3b c2 bc ef 1c 89 bd d8 7e ba bd
       -0.08770243 -0.023709953 -0.06694972 -0.09106225
0000c0 9a 41 c1 3d bd 44 a4 3d e8 de ae bc 84 0c fe 3d
       0.09436341 0.08020923 -0.021346524 0.12404731
0000d0 ae 64 af 3b d2 75 f5 3c d5 3f d9 bc 0e e9 91 bd
       0.005352578 0.029963408 -0.026519695 -0.0712453
0000e0 61 f8 bd bd 91 7c 60 3d fa 3a ab 3d 08 a8 8a bd
       -0.0927589 0.054806296 0.08360858 -0.06770331
0000f0 ac 6a c8 bd c4 05 a9 3d d5 55 c1 bd b1 37 fd bb
       -0.09785971 0.08253053 -0.09440199 -0.007727586
000100 23 fd df bd fb c8 01 be b9 24 2a 3d c4 d8 c0 bd
       -0.10936954 -0.12674324 0.041538928 -0.09416345
000110 e3 32 b3 3c ba 02 8e 3d 28 f0 18 3d e2 04 f4 3d
       0.02187485 0.06934114 0.037338406 0.11914994
000120 5b 10 bf bd 21 37 d0 bc 84 c4 3b bd c4 9e 89 bb
       -0.093292914 -0.025416913 -0.04584171 -0.0041998345
000130 d8 7e 83 bc c4 a6 d2 bd 8a d6 b7 bd 54 c9 94 3c
       -0.016051695 -0.10285714 -0.08976467 0.018162407
000140 09 c8 42 bb 55 47 ce bc 37 ee 2a 3c e1 b4 81 3d
       -0.002972128 -0.025180498 0.010432771 0.06333328
000150 94 78 cc 3c f0 b5 cc bd fc b2 b3 3d 14 1b 49 3d
       0.02495984 -0.09995639 0.08774373 0.04909809
000160 1b 6f 48 3d ac e3 0b bd 27 9d ef 3d b2 9f 4c 3b
       0.048934083 -0.03415267 0.11699896 0.0031223116
000170 06 f7 ea bd 94 61 17 bd 60 5f 53 3c f4 51 a6 3d
       -0.11472897 -0.036958292 0.012901157 0.081211
000180 bb ea fe bc a4 56 0d bc 10 5c c7 3c ef c2 54 bd
       -0.031117788 -0.008626614 0.024335891 -0.051943716
000190 d3 85 63 3c 74 72 33 bc bc 84 7c bd 2a a7 b3 3d
       0.013886887 -0.010952581 -0.061650023 0.087721184
0001a0 67 bd 26 bd c4 24 33 bd a7 8d ae bd fe 54 de 3c
       -0.040707972 -0.043736234 -0.08523112 0.027140137
0001b0 a8 5d f1 3d b7 b2 de bd a7 16 84 3d f0 84 b6 bd
       0.11785442 -0.10873931 0.06449633 -0.089120746
0001c0 32 c2 96 bd 52 3f e6 3d 71 ea 88 3d 32 e5 95 bd
       -0.073612586 0.11242546 0.06685341 -0.07319106
0001d0 d0 4b 18 bd 08 b7 24 3d a2 5d ae bd 0b cd d9 bd
       -0.037181675 0.040213615 -0.08513953 -0.10634812
0001e0 c7 9d 0f 3c dd 6f a2 3c 60 fa 59 bc 2c 0b 5d 3d
       0.008765644 0.019828731 -0.013304323 0.053965732
0001f0 50 76 69 3c f2 01 ee 3d a1 63 fd bc 2a 5a be ba
       0.014249399 0.11621465 -0.030931296 -0.0014522721
000200 ed e7 eb bd ea e9 1d bd bc 7b f9 3a e7 55 6f bb
       -0.11518846 -0.038553156 0.0019034068 -0.0036519708
000210 9f 87 3e bc db 46 8b 3d 1e 4b 3e 3b 34 3c 75 3d
       -0.011629014 0.06800624 0.0029036473 0.059871867
000220 b9 34 cb bd 10 e6 1a bd ff e3 c9 bd 12 23 6d 3d
       -0.099221654 -0.03781706 -0.0985794 0.057894774
000230 54 f3 50 3d 60 7f 0e bc 28 2d 66 bd e4 6c a3 3d
       0.051013306 -0.008697361 -0.056195408 0.079797536
000240 f7 fc 82 bc 21 34 94 3d 78 5d 18 3d f8 ff ed bc
       -0.015989764 0.07236505 0.037198514 -0.02905272
000250 ed 1d 11 bd d2 f0 c1 3d 35 b5 e3 bd 84 53 dc 3d
       -0.03542893 0.09469761 -0.11118547 0.10758117
000260 d6 9e 0c 3d 6c 5e 2c bd 31 14 25 3c 1a a7 93 bd
       0.034331165 -0.042082235 0.010075615 -0.072096065
000270 fa a8 44 3d fa a5 8b 3c ac a9 57 3d e7 7a a3 bd
       0.04801271 0.017046917 0.052652046 -0.07982426
000280 bd 2a 2f bd 92 a3 b5 bc e4 f2 b0 bd 50 b9 41 bd
       -0.042765368 -0.022172723 -0.08640078 -0.04729587
000290 d2 d3 fa bd b4 8c e2 3d dc 0f b6 bd 39 98 d9 3d
       -0.12247433 0.11061993 -0.08889744 0.10624737
0002a0 6b ef f6 3d a8 f0 b3 3d 1d 19 1a bd fd 8e 4f bd
       0.12057384 0.08786136 -0.037621606 -0.050673474
0002b0 a0 20 13 bd 9d 1d e5 bd 45 ec 98 bd 38 11 e0 3c
       -0.035919785 -0.11187289 -0.0746694 0.02735196
0002c0 02 32 ad 3d a4 77 8e 3c 5e 94 e6 3d 36 1e e4 bd
       0.08456804 0.017391033 0.112587675 -0.11138575
0002d0 84 84 cd 3c 8b 4f 7b 3d f1 15 bd bb c6 be a4 3d
       0.025087602 0.061355155 -0.005770438 0.080442
0002e0 e8 a0 b6 bd fa d4 da bc 94 21 a9 3d d2 f0 f9 bd
       -0.08917409 -0.026712883 0.08258358 -0.12204136
0002f0 48 33 9d 3c e4 30 b8 3d 0d 7d c4 bc d3 04 2d bc
       0.019189492 0.089937 -0.02398541 -0.010560232

bias f4 [3]
000000 48 55 a5 bd ae 40 96 3d ba 7b e4 3d
       -0.08072907 0.073365554 0.111564115
